Cell1_Model.md/Cell1_Model.pt (torch, 3215 bytes, 4 tensors)

ode_func.net.0.weight f4 [50, 3]
0.31885606 -0.13500609 -0.10362774 0.008697514 -0.06910012 -0.068207406 0.16710152 0.10448773
-0.009493388 -0.017661558 0.6035354 -0.10771201 0.14286642 0.3339824 0.05278468 0.03488485
0.40406922 0.030963533 -0.040357713 0.07511978 0.25442687 -0.05133555 -0.10678659 0.15985186
-0.07140492 -0.0024628835 0.21806437 -0.0060308813 0.4291355 0.0877013 0.19439045 -0.060860094
-0.09958889 0.01330175 -0.03802356 0.09574505 0.13197911 0.2997124 0.2773543 0.019226804
0.16127817 0.12998487 -0.078121744 0.24994493 0.18653196 0.053080373 -0.055543166 0.22611512
0.21272835 0.3097298 -0.12440856 0.26969355 0.11497786 0.00031842178 -0.0015219196 -0.6399747
0.050710756 -0.053375356 -0.34594145 0.14066988 -0.00085189694 0.74462426 -0.17748456 0.043280467
0.45196408 -0.054859757 -0.11521701 0.12936185 0.035904977 -0.16588777 -0.11547998 -0.009302597
-0.090457596 -0.04806162 0.12804903 0.005834929 0.3714125 0.075383924 0.0453294 -0.4339239
-0.009474504 0.11990175 0.2829929 -0.03404732 -0.017838078 -0.5503224 0.14948618 0.1313453
0.4682623 -0.049906835 0.16252968 0.33439407 -0.085782096 0.15075515 0.0063764066 -0.13458428
0.15198584 -0.1376585 -0.05846671 -0.24552678 0.15012345 0.60225284 -0.15557383 -0.20715496
-0.0107559655 0.11914028 -0.08800431 -0.14691082 -0.241544 0.106060885 0.052337624 0.2372887
0.40789142 -0.23990111 0.24603732 0.013828998 -0.14017707 -0.13957012 -0.20195751 0.007121576
0.008532016 0.57757145 -0.05834332 -0.030549806 -0.016454402 -0.0051304046 0.16524813 0.3529485
-0.056480058 -0.067039296 0.2881822 0.18003297 0.3406182 0.28260607 -0.2003605 0.059581634
0.17747323 0.059520014 -0.1615987 0.6151388 0.44716313 -0.012830481 -0.16813979 -0.08950456
0.12611027 -0.5877807 0.004326015 0.36201397 0.112820715 -0.15097794
00000000: 1a41 a33e 093f 0abe c83a d4bd 0580 0e3c
00000010: 5d84 8dbd 53b0 8bbd a91c 2b3e aafd d53d
00000020: 288a 1bbc f9ae 90bc 4c81 1a3f 1d98 dcbd
00000030: 934b 123e beff aa3e c034 583d 6be3 0e3d
00000040: 29e2 ce3e 3ca7 fd3c 214e 25bd 66d8 993d
00000050: 3d44 823e 3a45 52bd edb2 dabd 35b0 233e
00000060: be3c 92bd 5468 21bb 444c 5f3e b39e c5bb
00000070: a6b7 db3e bd9c b33d 4a0e 473e 6f48 79bd
00000080: 43f5 cbbd 95ef 593c 98be 1bbd fb15 c43d
00000090: 8825 073e e773 993e 6201 8e3e 8881 9d3c
000000a0: 1b26 253e c11a 053e 4bfe 9fbd 90f1 7f3e
000000b0: 3c02 3f3e ce6a 593d 3b81 63bd b98a 673e
000000c0: 76d5 593e e894 9e3e eac9 febd 4615 8a3e
000000d0: 8379 eb3d d9f1 a639 267b c7ba 62d5 23bf
000000e0: 15b6 4f3d 1ea0 5abd 3d1f b1be c40b 103e
000000f0: d651 5fba b29f 3e3f 83be 35be dc46 313d
00000100: d667 e73e a0b4 60bd e5f6 ebbd 6f77 043e
00000110: 1911 133d 7cde 29be c580 ecbd eb69 18bc
00000120: d541 b9bd 43dc 44bd 491f 033e ef32 bf3b
00000130: c729 be3e e362 9a3d 52ab 393d 462b debe
00000140: f33a 1bbc 0c8f f53d 72e4 903e 3475 0bbd
00000150: 2921 92bc eee1 0cbf e812 193e 627f 063e
00000160: 14c0 ef3e 1c6b 4cbd 2e6e 263e b335 ab3e
00000170: 86ae afbd 8f5f 1a3e 2df1 d03b 76d0 09be
00000180: 2da2 1b3e 5af6 0cbe ca7a 6fbd 5f6b 7bbe
00000190: f6b9 193e 3e2d 1a3f bf4e 1fbe 6e20 54be
000001a0: ca39 30bc d2ff f33d 9b3b b4bd ca6f 16be
000001b0: 4f57 77be 7336 d93d fa5f 563d cffb 723e
000001c0: 25d7 d03e a3a8 75be 35f1 7b3e 0693 623c
000001d0: 948a 0fbe 78eb 0ebe f3cd 4ebe 1c5c e93b
000001e0: dec9 0b3c b9db 133f 68f9 6ebd 9643 fabc
000001f0: 62cb 86bc f41c a8bb ce36 293e aab5 b43e
00000200: a257 67bd e64b 89bd 9e8c 933e 905a 383e
00000210: 8265 ae3e beb1 903e 4e2b 4dbe df0b 743d
00000220: 8bbb 353e 42cb 733d 217a 25be bd79 1d3f
00000230: 91f2 e43e f036 52bc d62c 2cbe 2b4e b7bd
00000240: 0d23 013e cc78 16bf 3ec1 8d3b e559 b93e
00000250: 8c0e e73d f699 1abe

ode_func.net.0.bias f4 [50]
0.62469 -0.19996728 -0.49719998 1.0066661 -0.67608404 -0.94942504 -0.5881563 0.25908527
-0.009926908 -0.8376964 0.8488367 0.30493397 -0.5102303 -0.44055608 -0.79258335 -0.19974822
-0.005286676 0.2183442 0.9090347 0.3950927 0.95811546 -0.7524571 0.7306635 0.005971824
0.73875415 -0.9027321 0.7903735 -0.46967247 0.70120984 -0.96637046 -0.55197936 -0.62640387
0.9722363 -0.2722661 0.34823456 -0.42271417 0.005111899 -1.02632 0.6214527 -0.05261588
0.11381331 0.05939869 -1.0292485 -0.6200514 0.5373061 -0.65460354 -1.5466895 -0.19878423
0.87352216 -0.21381386
00000000: afeb 1f3f 39c4 4cbe ff90 febe 6fda 803f
00000010: d813 2dbf 850d 73bf 6991 16bf d3a6 843e
00000020: 78a4 22bc 4573 56bf 5d4d 593f 4e20 9c3e
00000030: 749e 02bf 9190 e1be bee6 4abf cc8a 4cbe
00000040: da3b adbb 9f95 5f3e 80b6 683f 9749 ca3e
00000050: 0e47 753f 07a1 40bf c30c 3b3f 4aaf c33b
00000060: fe1e 3d3f 7319 67bf eb55 4a3f e978 f0be
00000070: 7d82 333f 0e64 77bf 854e 0dbf 015c 20bf
00000080: 7ae4 783f 7666 8bbe cd4b b23e fe6d d8be
00000090: b881 a73b 745e 83bf 8617 1f3f c083 57bd
000000a0: f416 e93d 0a4c 733d 6abe 83bf b0bb 1ebf
000000b0: e48c 093f 1994 27bf ecf9 c5bf 188e 4bbe
000000c0: 269f 5f3f 05f2 5abe

ode_func.net.2.weight f4 [3, 50]
-0.07753612 -0.12487943 -0.20201573 0.938629 -0.37711203 -0.64497817 -0.0036334048 0.4252361
0.1796106 -0.41483572 0.026469417 0.13863339 -0.04483594 -0.10837188 -0.09255005 0.06754417
-0.30076182 -0.046456847 1.0550921 0.19769396 0.9497974 -0.14834309 0.08350087 0.07271977
0.6339655 -0.38661027 0.61403614 -0.30519903 0.48465687 -0.4219834 -0.5848791 -1.0612882
0.25489223 0.36315545 0.16396347 -0.23386447 -0.20202355 -1.7410194 0.0037603492 0.026211565
0.6069806 0.113829285 -0.28724733 -0.1743503 -0.21424642 -0.18974707 0.012018003 -0.08251993
0.2636785 -0.24303856 -0.04714441 -0.071793444 -0.095069736 0.2425722 -0.030454986 -0.1489224
-0.06431615 -0.03712876 -0.054244008 0.052829877 0.121530704 0.14749874 -0.09424941 -0.14729185
0.041458268 -0.072770946 0.046100352 0.20602104 -0.2504474 0.013767523 0.219489 -0.80774546
0.9311864 0.0528146 0.2522484 -0.035821762 -0.2323202 -0.14454125 0.04984564 -0.08214134
-0.11467371 0.3469014 0.010636811 0.036580365 -0.031783655 0.07261717 0.044444256 -0.48030776
0.13813548 -0.111646876 -0.4755572 -0.006726999 -0.044697817 0.08362295 -0.0336055 0.029093025
-0.064198114 0.091436684 0.092396855 0.07124786 0.4490798 -0.119328685 -0.04545777 1.025671
-0.19866633 -0.75345546 -0.33372405 -0.28358442 -0.31953844 -0.852213 0.65978223 0.03958166
-0.22111563 -0.19695304 -0.9363461 -0.17424573 0.32680213 0.16359931 0.8027741 0.0703688
1.0604396 0.12788966 -0.34127507 -0.0770775 0.15265082 -0.71376264 0.8922416 -0.069617964
0.23569614 -0.27277064 0.07764677 -0.3293522 0.64290905 -0.5722043 -0.0012888982 0.06525902
-0.09598497 -0.63944054 0.5256629 0.14448698 0.5181458 0.16381846 -0.16400604 -0.4573663
0.4259565 -0.35394302 -0.930154 0.04357695 0.4310942 0.23133732
00000000: 42cb 9ebd c9c0 ffbd 36dd 4ebe fd49 703f
00000010: d414 c1be 4a1d 25bf 6b1e 6ebb 8cb8 d93e
00000020: d7eb 373e 5965 d4be 64d6 d83c e9f5 0d3e
00000030: e4a5 37bd 14f2 ddbd e18a bdbd 9954 8a3d
00000040: 74fd 99be 8949 3ebd 420d 873f 4970 4a3e
00000050: ec25 733f 40e7 17be 8102 ab3d 1aee 943d
00000060: 904b 223f c8f1 c5be 7931 1d3f 0c43 9cbe
00000070: f224 f83e 350e d8be a3ba 15bf 4bd8 87bf
00000080: 3c81 823e 83ef b93e 0ae6 273e 2b7a 6fbe
00000090: 43df 4ebe b9d9 debf 3170 763b a3b9 d63c
000000a0: 1563 1b3f 541f e93d 1512 93be e388 32be
000000b0: 6a63 5bbe 0e4d 42be 28e7 443c 3600 a9bd
000000c0: de00 873e 1adf 78be 7f1a 41bd 7108 93bd
000000d0: ecb3 c2bd d964 783e bc7c f9bc 1d7f 18be
000000e0: 30b8 83bd 5414 18bd f72e 5ebd 2464 583d
000000f0: 17e5 f83d e909 173e d605 c1bd add3 16be
00000100: 25d0 293d ef08 95bd b9d3 3c3d 2ef7 523e
00000110: a43a 80be 2d91 613c b9c1 603e 68c8 4ebf
00000120: 3b62 6e3f 1f54 583d b426 813e d7b9 12bd
00000130: 59e5 6dbe 9f02 14be f12a 4c3d b839 a8bd
00000140: 0dda eabd 0f9d b13e 0546 2e3c 4bd5 153d
00000150: 942f 02bd 50b8 943d 2e0b 363d e6ea f5be
00000160: 6373 0d3e 1ea7 e4bd 3c7c f3be 286e dcbb
00000170: 0f15 37bd 8242 ab3d eca5 09bd 7f54 ee3c
00000180: 4d7a 83bd 2843 bb3d 903a bd3d 66ea 913d
00000190: caed e53e 9962 f4bd ed31 3abd 3049 833f
000001a0: 306f 4bbe 75e2 40bf e1dd aabe fa31 91be
000001b0: 8b9a a3be a22a 5abf 7de7 283f 6120 223d
000001c0: 236c 62be 0fae 49be 61b4 6fbf 796d 32be
000001d0: 9c52 a73e 9486 273e 9a82 4d3f 841d 903d
000001e0: 7cbc 873f 82f5 023e 9bbb aebe cfda 9dbd
000001f0: 7f50 1c3e 26b9 36bf f269 643f dd93 8ebd
00000200: 545a 713e 98a8 8bbe 4505 9f3d daa0 a8be
00000210: b095 243f fb7b 12bf 3ff0 a8ba 85a6 853d
00000220: c593 c4bd 60b2 23bf d891 063f 65f4 133e
00000230: 34a5 043f 07c0 273e 33f1 27be ea2b eabe
00000240: f816 da3e 0538 b5be 931e 6ebf be7d 323d
00000250: 61b8 dc3e b1e3 6c3e

ode_func.net.2.bias f4 [3]
0.51159173 0.19063418 0.6362559
00000000: adf7 023f 9b35 433e abe1 223f
