Cell123_Model.md/Cell123_Model.pt (torch, 3215 bytes, 4 tensors)

ode_func.net.0.weight f4 [50, 3]
00000000: 31a8 9e3e 8406 0abe b196 dbbd f969 f63b
00000010: 99d0 b0bd 35c6 94bd fb65 3f3e 2296 e13d
00000020: 13ed 34bc 41ed 8abc c32a 2c3f 6368 e2bd
00000030: 354f 1c3e 80b1 ab3e 7fd9 1f3d 8788 6a3d
00000040: 0ddf dc3e 14e6 0d3c 6cef dbbc 3008 303d
00000050: 685d 7f3e 6095 47bd 36ca a6bd 13b8 253e
00000060: e87a 87bd f361 7cbb 4b5a 643e 6808 4abc
00000070: 91ff d63e bb03 c33d 10cc 3f3e 5c87 9bbd
00000080: 1886 cbbd 3266 db3b e9dc ffbc 233a e53d
00000090: c6ca 0f3e 91b3 8e3e 9264 8e3e cde3 dc3c
000000a0: 2dfe 173e c4bd fe3d af82 8cbd 606b 8d3e
000000b0: 30f8 353e 7f76 543d 256e 8fbd bd90 673e
000000c0: fb5f 553e 5cfb 973e 25ff 0dbe 09c1 893e
000000d0: 446d f93d 777a 9039 76aa a2bb c4e7 33bf
000000e0: 31ec 133d 304e 5abd 091a cdbd c013 083e
000000f0: ac03 0abc 107b 543f 6341 3dbe e199 0e3d
00000100: 7049 d93e 500f 93bd e6bf f7bd 0eed 273e
00000110: ce06 50bb 709f 31be a4a8 f8bd c144 1abc
00000120: 0d1e ddbd 0a07 0c3c f524 293e c702 463c
00000130: 8aa7 e73e 0aa3 993d df7f 533d 1d4d d5be
00000140: a62b 28bc 133d 163e 980d 913e 0759 0cbd
00000150: 00d3 31bc 3655 1fbf b8b3 2c3e 5472 233e
00000160: 3061 063f 8ecf 80bd 54b8 1f3e 5891 b63e
00000170: e8f3 babd a670 353e 4cb7 ee3d f671 3dbe
00000180: aeda 1d3e bf69 27be 77f1 68bd ccf5 b0bd
00000190: 6758 debe a19c 7e3e 1a63 30be 1287 6abe
000001a0: 4de3 3cbc 4c2c 283e 2042 1e3d 82c4 0cbe
000001b0: 997a 86be 7357 1c3e 95b0 7d3d 3b6f 633e
000001c0: 5cd6 073f 7148 69be fdf2 733e 0250 eb3c
000001d0: 76a5 11be 001f 0fbe a2ee 51be 2f4f d93b
000001e0: 9061 04bc 68ba 1b3f 9c2a 22bd ce7e 13bd
000001f0: 03f6 8bbc 8022 75bb 2aa9 423e 2b1f da3e
00000200: c015 85bd 8a40 83bd 2207 a23e b8ed 403e
00000210: a758 b63e a6e4 32bd cb66 3abe c996 853d
00000220: 15ab 403e e5f5 7c3d 4d6c 43be 39b2 213f
00000230: aa3a 213f 2479 cf3b fcd5 28be 9e47 b7bd
00000240: 34a2 ef3d 267c fbbe 357a 903b f4ef bd3e
00000250: 9d35 203e f5e2 26be
0.30987695 -0.13479048 -0.107221015 0.007519957 -0.08633537 -0.072643675 0.18691246 0.11014964
-0.011042851 -0.016958835 0.6725275 -0.110550664 0.1526459 0.3353386 0.03902578 0.05725911
0.43138924 0.008660812 -0.026847564 0.04297656 0.24937975 -0.04872644 -0.081440374 0.161835
-0.066152394 -0.003851053 0.22300069 -0.012331106 0.41991857 0.09522196 0.18730187 -0.07594177
-0.09937686 0.0066955322 -0.031233268 0.11192729 0.14042196 0.27871373 0.27811104 0.026964093
0.14843054 0.12438539 -0.068608634 0.27620983 0.17770457 0.05187082 -0.0700343 0.22613807
0.20837395 0.2968396 -0.13866861 0.26905087 0.12179044 0.00027557064 -0.004964168 -0.7027552
0.03611392 -0.05329722 -0.100147314 0.13288784 -0.008423727 0.8300028 -0.18481974 0.03481472
0.4243884 -0.07180655 -0.120971486 0.16399023 -0.0031742337 -0.17345977 -0.12141541 -0.009415806
-0.10796747 0.0085466 0.16518004 0.012085623 0.4524501 0.075018 0.05163562 -0.41660395
-0.010264313 0.14671735 0.28330684 -0.03426459 -0.010853529 -0.62239397 0.16865432 0.15961581
0.52492046 -0.06289588 0.1559766 0.35657763 -0.09128553 0.17718753 0.11656055 -0.18500504
0.15415451 -0.16348933 -0.056870904 -0.08640632 -0.4342682 0.24864437 -0.17225304 -0.22903088
-0.011528802 0.16423148 0.03863728 -0.13746837 -0.2626541 0.15267734 0.06193598 0.222104
0.5306146 -0.2278154 0.23823161 0.028724674 -0.14223275 -0.1397667 -0.20501187 0.006631754
-0.008079901 0.6083131 -0.039591417 -0.036009602 -0.017085081 -0.0037404597 0.19009843 0.42601904
-0.06498289 -0.06408794 0.31646067 0.18840683 0.3561451 -0.043675087 -0.18203275 0.065229006
0.18815263 0.06175794 -0.19084282 0.6316257 0.6298014 0.0063315798 -0.16487879 -0.08949207
0.1170086 -0.49118155 0.0044090995 0.37097132 0.15645452 -0.16297515

ode_func.net.0.bias f4 [50]
00000000: 94d7 113f cff7 4dbe 76bb 09bf f1cd 823f
00000010: dd84 26bf 4da9 5fbf c229 0dbf bb1d 4c3e
00000020: 5db7 c0bc 8db3 4fbf 814f 5c3f 2362 b03e
00000030: 53c1 febe f69a e4be 794e 4cbf 39da ebbd
00000040: ebae 293e 6060 713e 94aa 643f 9c8c 733e
00000050: c0fd 813f 9a56 3ebf 3b79 6d3f 67ab 743d
00000060: 7f88 213f 0cc6 62bf 3305 3d3f f5d6 03bf
00000070: 9f2e 293f 6180 6abf 0084 fcbe cf04 eebe
00000080: 8f94 6a3f d0e4 353f 47a5 c23e f1f4 5fbf
00000090: 136c d33d ae87 88bf b54b 113f 2357 68bd
000000a0: 749d a03d 9638 363d 538d 7ebf 2931 12bf
000000b0: 1e52 8e3f 8b96 1ebf b78e cebf fbdf 75be
000000c0: 9265 3b3f 9af8 85be
0.5696957 -0.20114063 -0.5380167 1.0219098 -0.65046483 -0.8736771 -0.5514184 0.19933216
-0.023524934 -0.8113335 0.86058813 0.34449872 -0.4975687 -0.44649476 -0.7980724 -0.11516232
0.16570632 0.2357192 0.8932278 0.23784107 1.0155563 -0.74350893 0.9276311 0.059733775
0.630989 -0.88583446 0.7383606 -0.51499873 0.66086763 -0.9160214 -0.49319458 -0.46488044
0.9163293 0.71052265 0.38016722 -0.87483126 0.10323348 -1.0666406 0.56756145 -0.056723725
0.07842532 0.04448756 -0.99434394 -0.5710626 1.111881 -0.6194846 -1.6137303 -0.24011223
0.7320186 -0.2616623

ode_func.net.2.weight f4 [3, 50]
00000000: 14e9 95bd f8ec ffbd 49a6 62be 0d7d 7c3f
00000010: 11ee c8be 18c0 2ebf 622b 133c c36d d33e
00000020: 112f 433e 6c66 c5be bfba 823d 08e7 2a3e
00000030: d7ce 18bd 6871 c9bd 36a9 19be a7ea ce3d
00000040: 166c 8bbe 1b2f 4abd 860e 9f3f 83c9 eb3d
00000050: f78c 843f b68e 693c ba50 4d3e 627d a43d
00000060: 3bfd 1b3f d503 d2be 2e54 353f 5a3f a6be
00000070: d603 fc3e 432f d3be 10e3 18bf fb79 8abf
00000080: e47f 8f3e 941d 273f c338 453e 8e56 a0bf
00000090: c537 76be 1b47 b5bf 90ab fcbb 4b2a c53c
000000a0: 8f95 2b3f 4dc7 e83d a750 90be f576 26be
000000b0: 7452 3abd 62e5 4abe c2ec 1b3d 8cb7 f4bd
000000c0: 9548 853e 7734 86be 3aae 4fbd 0e30 a9bd
000000d0: db68 e5bd ccb3 723e 939a 12bd 410a 34be
000000e0: 0174 7cbd 0c47 ccbc c842 34bd d68d 6c3d
000000f0: c4e1 0a3e 3db8 2c3e d63d c0bd c99a 14be
00000100: 2208 413d cc54 7abd f9f8 343d c401 523e
00000110: 4bd0 88be 4edd 373d 5ab4 8f3e b2e3 7cbf
00000120: de47 893f 6bc7 723d 9642 973e 567f 2bbd
00000130: f24e 81be 43c3 25be 3434 993d 9bbf b5bd
00000140: 02a9 ffbd ca4e b93d cf7b 043c 2d29 32bc
00000150: 16b4 a4bc 80c2 ef3e 6683 a43d d161 25bf
00000160: d9d1 0c3e b20f e1bd 4595 03bf 0568 04bc
00000170: 8359 6abd 1bd1 c43d 4fb0 2ebc c188 f43c
00000180: 04b7 39bd 36ee ac3d 789a e93d c7c9 8d3d
00000190: 020d d73e 556b febd a9ce 4ebd f173 733f
000001a0: d90b 40be eb53 21bf 2ba1 95be abe0 95be
000001b0: 1d34 98be f368 4abf 0bf2 2a3f 9c99 de3c
000001c0: 0ea5 5bbe 9362 2bbe 4789 6abf 84f9 22be
000001d0: e4c6 bc3e 4e63 1e3e d145 5d3f f5c5 863c
000001e0: 8ee2 593f 85b0 9d3e ebc8 c6be d1ad 7bbd
000001f0: dcd1 c0bc bf85 2dbf e9d3 733f 222d 7fbd
00000200: 1b89 4e3e 160a 6dbe 81b1 bd3d ebd2 e73e
00000210: d302 193f e827 b6bd 2717 153c a6cd 03bf
00000220: 2f75 74bd 26ad edbe 95de f53e c5c0 153e
00000230: fb96 f13e 2453 283e cc4e 15be 5655 c9be
00000240: e5da 1e3f 02ec b7be 11f9 67bf fa03 1b3d
00000250: 47f4 c43e dca4 553e
-0.07319847 -0.1249637 -0.22133745 0.9862831 -0.3924413 -0.6826186 0.008982511 0.4129468
0.19060923 -0.38554704 0.06383275 0.16689694 -0.037306633 -0.09836084 -0.15005955 0.1010335
-0.272309 -0.04936133 1.2426307 0.11513045 1.0355519 0.014255216 0.20050326 0.080317274
0.60933274 -0.4101855 0.70831573 -0.32470208 0.49221677 -0.41246995 -0.5972147 -1.0818475
0.2802726 0.6527951 0.19259934 -1.2526414 -0.24044712 -1.4162325 -0.0077108815 0.024068018
0.67025083 0.113661386 -0.28186533 -0.16256316 -0.04548879 -0.19814065 0.038067587 -0.11949071
0.26031938 -0.26211902 -0.050703265 -0.08261119 -0.1120164 0.237014 -0.035791945 -0.17582037
-0.061634067 -0.024936222 -0.044009 0.057752453 0.13562685 0.16867156 -0.09386794 -0.14512171
0.047126897 -0.061116025 0.04418275 0.20508486 -0.26721415 0.044888787 0.28067285 -0.98784935
1.0725057 0.05927221 0.2954299 -0.041869484 -0.25255543 -0.16187768 0.0748066 -0.088744365
-0.124834076 0.09048231 0.008086159 -0.010874075 -0.020105403 0.4682808 0.08032875 -0.6460238
0.13751926 -0.10989322 -0.5139964 -0.008081441 -0.05721427 0.09610196 -0.010662152 0.029850366
-0.045340553 0.08443873 0.11406416 0.069232516 0.42002112 -0.12422816 -0.050490055 0.9509879
-0.1875452 -0.63018674 -0.29224524 -0.2927297 -0.2972726 -0.7906639 0.6677558 0.027172856
-0.21449682 -0.16736822 -0.9161572 -0.15915495 0.36870492 0.15467569 0.86434656 0.016451815
0.8511132 0.30798736 -0.38825163 -0.06144506 -0.023537569 -0.67782205 0.95245224 -0.0622989
0.20169489 -0.23148379 0.09262372 0.45278105 0.59769934 -0.0889433 0.009099758 -0.5148567
-0.059682067 -0.46421164 0.4802138 0.14624317 0.471855 0.16437966 -0.1458084 -0.3932292
0.62052757 -0.35922247 -0.9061442 0.03784559 0.3846762 0.2086367

ode_func.net.2.bias f4 [3]
00000000: 2363 f33e 27f1 6a3e bbe0 0f3f
0.47536573 0.22943555 0.56202286
